pytorch_cifar_models/mlp_model_full.pth (torch, 4366 bytes, 5 tensors)

weight f4 [16, 1]
00000000: 35ea cdbc 6090 30bf 7f58 d8be 6c6e 2c3e
00000010: 5c44 89be ac43 193f 3f1d de3e 401d c03d
00000020: 0d5a e7be cc66 95be 7ac9 653e 5870 a5be
00000030: d8c3 033f cb5a 6f3d 2f32 403f b457 6b3f
-0.025136093 -0.689703 -0.42255017 0.16838998 -0.26809967 0.59868884 0.43381688 0.09380579
-0.4518589 -0.2917999 0.22440138 -0.32312274 0.5147071 0.058436196 0.75076574 0.919307

bias f4 [16]
00000000: 9049 463e 4b63 033f 8a28 f03d 56fb 4a3f
00000010: cc8a eebe 0076 553f eb66 013e 86c4 39bf
00000020: 6865 1dbe 46c4 153d 159d 8e3f 541a a7be
00000030: ef52 e3be bea7 04bd f703 8bbe 7caa fb3e
0.19364 0.51323384 0.11726482 0.7928976 -0.4659027 0.8338318 0.12636916 -0.72565496
-0.15370715 0.036564134 1.1141688 -0.32637274 -0.4439921 -0.032386534 -0.27151462 0.49153507

weight f4 [8, 16]
00000000: ef78 a53e 8bad 59be 7973 94be 14cf a13e
00000010: 7c86 073e b529 ba3d a48f 983e 70b7 263d
00000020: 39f5 c5be eb59 8bbe ccd2 533e e04c a5bc
00000030: ac9f eabd c1a7 c23c f96d 823d 06dd 093b
00000040: 00b2 44bd c845 4d3d 4054 45be 8c86 e63d
00000050: c6b8 4c3e 9222 25be 8292 01be 2007 f2bd
00000060: f001 1b3e cc02 fc3d 9450 fbbd a49d a43d
00000070: 2c41 213e b6fa 1fbe 98fa 503e 7ea7 4abe
00000080: 3b36 43be a5f2 52bc eefe 24be cf08 d43d
00000090: d072 5a3e ba11 7bbe 0e38 353e 9c77 fe3d
000000a0: 3d60 a5be 3e8b 89bd 2d77 97be 703b 7c3e
000000b0: c838 3c3d 3b99 e8bc 70be 233d 38f9 97be
000000c0: 9a86 c5bd cbc0 31be 4585 8dbd ac57 c63c
000000d0: 8aaf 42be d8dc a13e a4d8 c43c 0497 59be
000000e0: 3580 acbd 3c83 a93d 3867 003e f0db 303d
000000f0: f25d 243e ebec 1abd e86d 81bd 70b7 a33e
00000100: 11de 7e3e 0b41 8f3e 12df 4c3e 74f9 943e
00000110: daa5 503e d430 b73d 4ac2 8d3d e408 efbd
00000120: 422d da3e 6c3b 363e 9bd1 873e 5416 50be
00000130: 4995 24be 9919 51bc 1aa2 2e3e 2e68 96be
00000140: a936 30be dbd4 653c 7856 233e 9a32 7ebe
00000150: 70b4 12bd 4276 91be fcd4 f0bd 12d4 293e
00000160: f991 e43d fa10 96be d5ca 11bd c8df 6c3d
00000170: 8a32 423e 669b 12be f419 e1bd 8ff8 58be
00000180: c0f1 2b3b ab89 02be fe21 62be c248 4e3e
00000190: 74fd 8d3d 6988 873a 8690 443e 344a 5f3e
000001a0: e224 80be 132c 2cbe e864 10bc dcad 03be
000001b0: 8350 273e 07ef 63bd 6899 6d3d 615b d23e
000001c0: 9113 75bc 7f91 52bd 32cc 0cbc b58e 6fbe
000001d0: 62ad 2fbe 9c6f b53d 885e 193e 34fa f33d
000001e0: 8e1b 2a3e 1464 3b3d e174 e6bd 40b6 ffbc
000001f0: 9b32 0c3e c07b 63be 6437 e43c 684a 35be
0.32318828 -0.21257608 -0.2899435 0.316033 0.13234895 0.09089986 0.2979709 0.040702283
-0.38663653 -0.2721704 0.20685881 -0.020178258 -0.11456236 0.023761632 0.06368632 0.0021036281
-0.048021317 0.050115377 -0.1927042 0.112561315 0.1999236 -0.16126469 -0.12653545 -0.11817765
0.15137458 0.12305221 -0.122712284 0.0803788 0.15747517 -0.15622982 0.20408094 -0.19790456
-0.19063656 -0.012875234 -0.16112873 0.103532426 0.2133286 -0.24518481 0.17697164 0.124251574
-0.32299986 -0.067160115 -0.2958311 0.24632049 0.04595259 -0.028393378 0.039976537 -0.29682326
-0.09644814 -0.17358701 -0.06910185 0.024211727 -0.19012275 0.31613803 0.024029084 -0.21249014
-0.08422891 0.08276984 0.12539375 0.0431785 0.16051462 -0.0378236 -0.06319791 0.3197589
0.24889399 0.2797931 0.2000697 0.29096568 0.20375767 0.0894486 0.06921823 -0.116716176
0.42612654 0.17796105 0.26527104 -0.20321018 -0.16072573 -0.012762451 0.17054024 -0.29376358
-0.17208351 0.0140277995 0.15950954 -0.2482399 -0.03581661 -0.28410536 -0.117593735 0.16584805
0.111606546 -0.29309827 -0.035593826 0.057830602 0.18964592 -0.14317092 -0.10991278 -0.21188568
0.0026236624 -0.12747829 -0.2208328 0.20144942 0.06933108 0.0010340336 0.19195756 0.2180565
-0.2502814 -0.16813688 -0.00881312 -0.12859291 0.16339307 -0.055647876 0.058007628 0.41085342
-0.014958278 -0.051408287 -0.008593606 -0.23394282 -0.17155984 0.088591784 0.14977467 0.11912957
0.16612074 0.04574974 -0.11252762 -0.031214833 0.1369118 -0.22215176 0.027858444 -0.17704165

bias f4 [8]
00000000: ee9d bdbc a8b8 5dbe d897 71bb 25ae e2bc
00000010: d6ac ad3e 5f06 923d 080d 3f3e f1a9 efba
-0.023146596 -0.21652472 -0.0036864188 -0.02767093 0.33920926 0.071301214 0.18657315 -0.0018284899

weight f4 [1, 8]
00000000: 1481 92be ebff e1bc 3bcc 27bd c8b8 c1be
00000010: b4a6 a53e a48d 51bd a821 87be 9dcb 08bc
-0.28614104 -0.027587852 -0.040966254 -0.3783629 0.32353747 -0.05116047 -0.26392865 -0.008349326
