pytorch_cifar_models/mlp_model.pth (torch, 3228 bytes, 5 tensors)

fc1.weight f4 [16, 1]
0.3661291 -0.3503039 -0.57524127 -0.37125635 -0.5668802 -0.9917893 0.33767995 0.6027988
-1.0453011 -0.4192083 -0.6485866 0.47298938 -0.22531158 0.7244233 -0.1865822 0.07338798
00000000: 4675 bb3e 085b b3be 0343 13bf 5015 bebe
00000010: 101f 11bf e7e5 7dbf 63e4 ac3e 0651 1a3f
00000020: 6dcc 85bf 78a2 d6be c509 26bf aa2b f23e
00000030: 14b8 66be ce73 393f 670f 3fbe 704c 963d

fc1.bias f4 [16]
0.7468339 0.84797496 -0.403232 -0.8133644 0.32616234 -0.34067518 0.5341218 0.9546357
0.39624935 -0.7474141 -0.63631105 -0.095382616 0.13800284 0.23767486 0.1883496 -0.8957715
00000000: 8230 3f3f e314 593f 6d74 cebe a638 50bf
00000010: c0fe a63e fa6c aebe 35bc 083f 0163 743f
00000020: 32e1 ca3e 8856 3fbf 48e5 22bf f657 c3bd
00000030: 9e50 0d3e 0a61 733e b8de 403e 4851 65bf

fc2.weight f4 [8, 16]
0.3261249 0.109466046 -0.05784289 0.15369648 -0.2179941 -0.3935165 0.1440092 0.42099383
-0.35409564 0.24716303 0.24770968 0.23112209 -0.22094595 0.36708403 -0.28965297 0.18964952
0.09875551 0.18042627 0.05942812 0.07213852 0.20822723 0.40760276 -0.2894564 -0.065343186
0.21435662 0.16730565 -0.04222843 -0.05768865 0.25133735 -0.36547434 0.017294722 -0.21318337
0.023748765 0.2886268 0.024612246 -0.05263391 -0.17618878 0.08985368 0.040713195 -0.022648966
0.16884856 -0.014760792 -0.08130896 0.09959046 0.08626154 0.108764164 0.050084345 -0.084760934
-0.18164364 0.20491596 0.07025615 0.120140105 0.14241897 0.077048495 0.14770763 -0.15796998
0.3422173 -0.16195771 0.15205514 -0.30881503 0.26345626 0.004881884 0.09842291 -0.033510953
0.023713794 0.14330113 -0.13471606 0.24725991 0.017568221 0.10854499 -0.18251379 -0.23750515
-0.06787841 -0.084537834 0.24802767 -0.16783795 -0.26876146 -0.16129142 -0.13415398 0.047739
-0.1280444 -0.053404182 -0.032699466 0.20165771 0.08421874 0.12632298 -0.1472131 -0.12266898
0.046619058 0.1380491 -0.124966145 0.23364103 -0.09343743 -0.12102944 -0.20148236 0.09928754
0.16740406 -0.06647633 -0.043446574 -0.09255549 0.12151231 0.19019121 -0.056073405 -0.1838898
0.034329455 0.041922808 0.14829616 -0.28757527 -0.05446178 0.1699298 0.18373907 -0.08670756
0.016788274 -0.16035974 0.023023278 -0.20671451 0.14135951 0.1547344 -0.062740594 0.1952608
0.01887706 -0.06536242 -0.12636018 -0.06457561 0.21819815 -0.068502575 -0.19071698 -0.13775405
00000000: d8f9 a63e bc2f e03d abec 6cbd 9c62 1d3e
00000010: d839 5fbe ff7a c9be 2677 133e 818c d73e
00000020: 064c b5be 4e18 7d3e 9ba7 7d3e 45ab 6c3e
00000030: a83f 62be 70f2 bb3e 654d 94be 7c33 423e
00000040: 5440 ca3d aac1 383e e66a 733d 5cbd 933d
00000050: 8539 553e 4fb1 d03e a133 94be a6d2 85bd
00000060: 4d80 5b3e 2c52 2b3e b8f7 2cbd ef4a 6cbd
00000070: 4aaf 803e 741f bbbe a9ad 8d3c be4c 5abe
00000080: c58c c23c e4c6 933e 9f9f c93c a896 57bd
00000090: d56a 34be 3505 b83d e1c2 263d 538a b9bc
000000a0: a3e6 2c3e 40d7 71bc 5085 a6bd 15f6 cb3d
000000b0: e4a9 b03d bfbf de3d 3e25 4d3d 2497 adbd
000000c0: ca00 3abe 7dd5 513e 75e2 8f3d 040c f63d
000000d0: 47d6 113e 9acb 9d3d ab40 173e e2c2 21be
000000e0: 1b37 af3e 3ed8 25be 58b4 1b3e 011d 9ebe
000000f0: bde3 863e 36f8 9f3b f391 c93d c842 09bd
00000100: 6e43 c23c 88bd 123e 02f3 09be b431 7d3e
00000110: 3beb 8f3c d64c de3d e5e4 3abe 8d34 73be
00000120: d603 8bbd 2c22 adbd f7fa 7d3e b6dd 2bbe
00000130: 1a9b 89be 9429 25be a95f 09be f889 433d
00000140: 121e 03be 58be 5abd e0ef 05bd 5c7f 4e3e
00000150: e07a ac3d d05a 013e 08bf 16be e039 fbbd
00000160: a0f3 3e3d be5c 0d3e 40ee ffbd 983f 6f3e
00000170: 205c bfbd 48de f7bd 6451 4ebe 4457 cb3d
00000180: f86b 2b3e be24 88bd 09f5 31bd bc8d bdbd
00000190: 72db f83d 7cc1 423e 3aad 65bd 9c4d 3cbe
000001a0: 0b9d 0c3d 40b7 2b3d f3da 173e 113d 93be
000001b0: 5113 5fbd 1402 2e3e 1826 3c3e bc93 b1bd
000001c0: 9087 893c 5835 24be 509b bc3c f8ac 53be
000001d0: 8cc0 103e b272 1e3e 247e 80bd 72f2 473e
000001e0: 10a4 9a3c bcdc 85bd 9064 01be 3840 84bd
000001f0: 566f 5f3e 144b 8cbd 504b 43be 660f 0dbe

fc2.bias f4 [8]
-0.030101083 0.008883696 0.06329491 0.2137181 -0.17126654 -0.18110827 -0.20938432 -0.1788089
00000000: 8c96 f6bc ec8c 113c c3a0 813d ebd8 5a3e
00000010: 7f60 2fbe 7274 39be d868 56be ae19 37be

fc3.weight f4 [1, 8]
-0.3182476 0.23810902 0.2045203 0.23344652 -0.27057365 -0.094362244 0.28483087 0.2968938
00000000: 59f1 a2be dad2 733e c56d 513e 9b0c 6f3e
00000010: a188 8abe fe40 c1bd 5ad5 913e 7702 983e
